pose_transformer.pth (torch, 325806 bytes, 30 tensors)

embedding.weight f4 [64, 34]
00000000: 1614 1f3e 4ba2 62bd bb3b de3c c766 e7bd
00000010: f330 edbd d253 eabd 82e1 bd3c 4616 a43d
00000020: ec7f e23d cfb0 3ebe 4f56 03be a42e 12be
00000030: f4be 81bd 27c6 07be 0d2e babd 60c4 943d
00000040: c6b1 573e da0b b0bd a5ac 303d 3709 913e
00000050: dae7 153e 6225 d9bb c686 8d3d fa56 eabd
00000060: 9040 dcbd e980 04bd 9b4d 1a3e 9093 683d
00000070: 6bd6 bb3d a3ae 1d3e a313 e93b e200 8fbe
00000080: 479c 2b3d cc3b 0dbe 5a51 96bc 3860 e63c
00000090: 53ff a4bd db56 6cbc e1ed 09bc 9b6a d2bd
000000a0: 504f 3cbe 9615 37be 1813 4d3d 6c48 973d
000000b0: 3910 d5bd f0ef 773d 0b44 003e 78e1 86bd
000000c0: 53cd 8f3a 9748 463e 1f6c e7ba 1eac 0c3e
000000d0: fc25 8ebc 23f4 f43d 379e 92bd 9944 6abe
000000e0: 922e 0dbe 789a 3f3e 5d87 a43d e1a5 6b3c
000000f0: 3897 1abd ed99 a9bd 0549 363d fd48 4cbd
00000100: 1a9d 6c3d ead3 dabd c6c1 2c3e d83f e5bd
00000110: 7f21 9fbd e6a0 c33d 46e7 aa3d 1309 5b3e
00000120: a6cd 9abd d02d f83d 4f4f e93d 6eeb 0fbe
00000130: f763 373e 8b25 24bd 7b28 703b 77f5 8fbd
00000140: b75f 80bd b84b f83d c73a c0bd d109 4bbe
00000150: ca7d 84bb dc53 51be 278c 793c ca47 f33d
00000160: f742 43be 8443 353e 0442 36be 05b1 17be
00000170: 3cb8 a73d f79c b1bd 4d83 a4bd cf06 c0be
00000180: 731d 2d3e 715f ed3c 6907 45be 176e 7c3e
00000190: 9678 2a3e e647 8d3e 4bdf d8bd 5af1 913e
000001a0: cafd 79bd 6284 8f3d 8d68 3f3e 99b5 8c3e
000001b0: e7a0 af3d 174a 203e f1c2 903c d2cb c63d
000001c0: f102 d83d 7477 6c3d 84c2 c53c 86ee 26be
000001d0: 03ad 40be 960a 273e 1bb7 1cbe ea6d d7bd
000001e0: 1a26 863d aa9e 2c3d 3279 8e3d 0c93 fdbd
000001f0: c189 7eba 4ac3 c4be bcc6 4cbd 0ef9 71be
00000200: 1ca4 2e3e fb46 2e3d b177 943d 3eb2 d03d
00000210: fd50 5ebd c9f7 9cbe 24a2 b53d 7423 a1be
00000220: b4e2 a53d 2b48 6cbd 14e4 463e 4ec8 bbbd
00000230: 0ae6 0c3e e61d fabd 6bab bcba 98b0 733d
00000240: 7739 b1bd f668 8a3d e3c3 0e3e 22c3 1bbe
00000250: 8188 dcbd ab4a 5bbd 6e1d 703d de14 2e3e
00000260: 3ab1 f23d 8af1 8a3e a507 41bd 000f 4b3e
00000270: fa0e 273e 146b 653e fe08 6c3e ea13 36be
00000280: e900 9cbc 30a3 203e f830 a7bd 4557 83be
00000290: a95f 4dbe dab0 13be bdba d7bc 45a2 b7be
000002a0: 3981 a4bd 3c39 abbe cd87 dc3d ecfe 193e
000002b0: 8df3 563d f95e 16be e472 1bbe e94b 0abe
000002c0: c680 0ebe b1df 07be 029a 44be bc1a 913d
000002d0: 3a06 e6bd d286 ff3d 9b6c 673d ba59 303e
000002e0: 3d35 8bbd e422 fbbd 7556 21be cfc1 2b3e
000002f0: 7769 403e b6b4 a03e 449f 62be 550e b23d
00000300: 1c29 85bd d5aa 923e 9edd 04be 61ed 083d
00000310: abcc 643e 15a3 86be c9f6 843d f64b 24bd
00000320: e5fe 883e 1b48 653d 8da0 acbd 11af 34bd
00000330: c89c 053e 320d 40be 8d4b 38bd d054 0c3d
00000340: 905f a13d 7b49 513d ef17 993d 0f17 d33d
00000350: eeeb dbbd 7011 123e 440c 3a3e d5f5 2ebe
00000360: cf3b d6bc f633 86bb d006 453d 40b0 943c
00000370: ce93 113d 6a3e 8abe 38b7 2bbd 6537 b73d
00000380: 9b82 1bbe edfd 2fbe 0f11 1a3e dc5d 293c
00000390: 4a56 20be d6e6 453d fcf2 0e3d ba9f cabe
000003a0: 428a 83bd 3e17 7dbe acad 023e 2b0f df3d
000003b0: ee9e f93d 05f4 ae3c 3482 023d 8839 d03b
000003c0: c121 013e a84e 94bd 4c7b eebc 1594 e2bc
000003d0: 0faf a6bd dd25 3a3e e0cf 08be 8847 d43d
000003e0: 1985 0bbe 131c 373e c7b8 4e3d 3dd9 e83d
000003f0: 84c2 80be 64d6 c7bc 273e 353e 2e24 acbd
0.15535006 -0.055330556 0.027128091 -0.112989 -0.11581602 -0.11441769 0.02317882 0.08012061
0.110595554 -0.18622135 -0.12825893 -0.14275604 -0.063352495 -0.13259183 -0.09090815 0.07264018
0.21063909 -0.085960105 0.043133397 0.28327343 0.14639226 -0.006626771 0.069104716 -0.11442371
-0.10754502 -0.0323495 0.15068667 0.05678135 0.09171756 0.1539865 0.0071129366 -0.2793036
0.041897085 -0.13792342 -0.018349338 0.028122053 -0.08056512 -0.014425005 -0.008418531 -0.1027424
-0.1838963 -0.17879328 0.050067037 0.0738686 -0.10403485 0.060531557 0.12525956 -0.065859735
0.0010971226 0.19363628 -0.0017656124 0.13737532 -0.017352097 0.11960628 -0.07159083 -0.2287773
-0.13787296 0.18711269 0.08033631 0.01438281 -0.03774187 -0.08281312 0.04450323 -0.049874295
0.05776701 -0.10684951 0.16870794 -0.11193818 -0.07770061 0.09552173 0.08344893 0.2139018
-0.075587556 0.12118113 0.1139208 -0.14054653 0.17909227 -0.040074866 0.0036645222 -0.070292406
-0.06268256 0.12123817 -0.09386211 -0.19827963 -0.0040433155 -0.20442146 0.015231169 0.11878927
-0.19068514 0.17701536 -0.1779862 -0.14813621 0.08189437 -0.08672517 -0.08032856 -0.37505195
0.16905765 0.028976174 -0.19241108 0.24651371 0.16647562 0.27593917 -0.10589465 0.2850445
-0.061033048 0.07007672 0.18692227 0.27482298 0.085756116 0.15653263 0.01767108 0.097068444
0.10547436 0.057731107 0.024140604 -0.16301927 -0.18815999 0.16312632 -0.15304224 -0.10519011
0.06550236 0.0421435 0.0695671 -0.123815626 -0.0009709858 -0.38430244 -0.049994215 -0.23630163
0.1705479 0.04254816 0.07249392 0.10190247 -0.054276455 -0.30657795 0.088688165 -0.3147236
0.08099881 -0.057686012 0.19422942 -0.091690645 0.13759628 -0.12212734 -0.0014394348 0.059494585
-0.08653539 0.06758301 0.13941912 -0.15211156 -0.107682236 -0.053538006 0.058621816 0.17000148
0.118502095 0.27137405 -0.04712643 0.19829941 0.16314307 0.22404128 0.23050305 -0.17781034
-0.019043403 0.15687251 -0.08163637 -0.2565252 -0.20056023 -0.14422932 -0.026334161 -0.3586599
-0.0803246 -0.33442104 0.107680894 0.15038651 0.052478362 -0.14684667 -0.15180546 -0.1350552
-0.1391631 -0.13268925 -0.19199374 0.07085177 -0.112316564 0.12476887 0.05650006 0.17221728
-0.06797264 -0.12262514 -0.15755637 0.16773151 0.18790232 0.31387872 -0.22131068 0.0869414
-0.065019816 0.2864596 -0.12975165 0.033429507 0.223437 -0.26296297 0.06492383 -0.040111504
0.2675697 0.05597697 -0.0842906 -0.04411227 0.13048089 -0.18755034 -0.044993926 0.03426057
0.07879555 0.051095467 0.07475268 0.103071325 -0.107383594 0.14264464 0.18168741 -0.17085965
-0.026151566 -0.0040955497 0.0481022 0.018150449 0.03554135 -0.27000743 -0.041922778 0.089461125
-0.15186541 -0.17186709 0.1504557 0.010337319 -0.15657917 0.048315845 0.034899697 -0.39574987
-0.06422855 -0.24715897 0.12761563 0.10891565 0.121885166 0.021356592 0.031862453 0.0063545145
0.12610532 -0.07241565 -0.029111527 -0.027658502 -0.081388585 0.18178506 -0.13360548 0.10365206
-0.13624991 0.17881803 0.050469186 0.1136956 -0.25148404 -0.024394222 0.1769949 -0.08405338

embedding.bias f4 [64]
00000000: ffe8 b63e 24f2 0e3f c5e7 39bf 0fa9 ba3e
00000010: 7d44 9b3f 52fa 713e de88 d13d 6489 e6be
00000020: bd92 e13d 862e 133e 1505 53bf 6aa3 0cbe
00000030: cb84 ca3e 1aa9 b7be 1775 d2be 0e55 c43e
00000040: c1d1 2abf 80d8 2a3f fe78 da3e 2b81 4ebe
00000050: ecaf 00bf e208 19bf c736 763d 8257 4f3e
00000060: d89d 9dbf 59ca a93e 1ec8 423e 1706 843b
00000070: f438 8c3d 4652 043e 3338 983e 5bbb 5bbf
00000080: a951 72bf b8a4 9c3e 176e 90bd e1ea a7be
00000090: 52b5 2cbf 9b43 6b3e fbac 2f3f 08e1 adbe
000000a0: 8ea8 9dbe 12d2 2a3f a45d 9abd 4f9d 53be
000000b0: ef66 1e3e 5db5 853e e240 e33d 1106 a7be
000000c0: 4b5a 433f 59d7 7b3e 324c 983e 8559 01bc
000000d0: ff8c 283c b461 1ebf ddb1 143f 8311 17bd
000000e0: e2db 80bf ad02 a7be 2b3c f5be e0ac 9b3c
000000f0: 3c66 653f 2faf 8fbe c144 ddbd e6fe 2dbf
0.35724637 0.5583823 -0.7261928 0.36457106 1.2130276 0.23630646 0.102311835 -0.45026696
0.11014316 0.14373216 -0.8242963 -0.13734213 0.39554438 -0.35871202 -0.41104957 0.38346142
-0.6672631 0.667366 0.42670435 -0.20166461 -0.50268435 -0.5977918 0.060110833 0.20248225
-1.2313795 0.33162192 0.19021651 0.0040290463 0.068468004 0.1292201 0.29730377 -0.85832757
-0.94655854 0.3059442 -0.07052248 -0.32796386 -0.6746417 0.22975008 0.6862332 -0.33960748
-0.3079266 0.6672679 -0.07537392 -0.20665477 0.15468954 0.26114932 0.1109636 -0.32621816
0.7630965 0.24593867 0.29745632 -0.007894878 0.010287522 -0.61867833 0.580839 -0.036881935
-1.0067103 -0.3261923 -0.47897467 0.019003332 0.8960912 -0.28063342 -0.108041294 -0.6796707

transformer_encoder.layers.0.self_attn.in_proj_weight f4 [192, 64]
00000000: 1420 be3c 66fe 883e c4e6 993c adae 62be
00000010: 5719 603c 8c2f ca3c 1300 703e 42f3 353d
00000020: ab21 db3c d55e 893c 64d5 80bd 8eed d6bc
00000030: 433d 63bd 003f 12bd bf39 963d 7a40 bbbe
00000040: d190 883c 4772 0e3e c8a5 06bc 145e 10bd
00000050: 8250 0c3d a0ec b43d b553 24bc d556 8a3d
00000060: 96c1 aabd ed6f 443d 03f0 c9bd 637b 103d
00000070: bbff 25be 345d 49be 28d2 7fbd 55b1 8bbe
00000080: 55c9 3d3d 4864 85be dd6d 0a3b ae9f fd3d
00000090: c229 7b3a f8f8 b13d 05bd 2fbd dc0f cb3d
000000a0: 182a de39 3858 9c3d cba4 89bd 29ca 8d3d
000000b0: 64c6 1dbe 6f78 c5bc c5c9 5cbd d9c4 45be
000000c0: 0a8e fcbc 14a6 36bd 1a04 ed3d f4a6 07be
000000d0: 21be 95bd f6ad 62bd 4cdc 793c d61c cdbd
000000e0: a81d d7bd 0153 8abb ba25 88bc ccba dfbd
000000f0: 2342 22bd 3f9d 8fbd bf04 e2bd da0d 0e3d
00000100: 1be9 973d 7384 25be 28b5 75be cbf0 9fbd
00000110: b5c7 6cbc 858e b63d fbf7 60be 5ab2 adbc
00000120: 6aed af3d 27ce a2bd f2d9 2a3e d0c5 1abb
00000130: de6b 5e3d 26fb c93d 286b 0d3d 8a76 20be
00000140: f1ea e63d d795 11bc 7e55 17be 5a25 8bbe
00000150: 6a9d 38be e7f7 e2bd 389a 1b3d 1002 6abe
00000160: e5b8 eebd 3a67 393d 57f7 c13d b7dc 1cbe
00000170: 8234 b0bd b8a4 6cbe 16b3 13be e2d5 a5bd
00000180: 14f6 42be 530b 053e 019b 2f3e 5a7d a8bd
00000190: fae5 17bd c384 9abc f69c e93d 2ed0 9a3d
000001a0: 75c7 c83c 2eee 363c 7278 c9bb 503a abbb
000001b0: d90f df3c 0c5f 5a3e dace 693d 28a7 07be
000001c0: 2ac9 d93c 156d 613d 22f3 a93d 1300 dd3c
000001d0: 0f5e a53c a037 a93d 8faa 573d 4822 ebbc
000001e0: b168 2fbe 5209 533d 5537 24be a977 83bd
000001f0: 3a5d 28bd 1502 fb3d d28c 2f3e 26ee ca3b
00000200: 2fc7 0e3e 9ab2 173e 053f 303b dc25 40be
00000210: e30d 5b3d c088 06be 4d81 ed3d ab73 d03c
00000220: e3bf f2bc 14c7 37bd eb6a 20bd a1fe 1abc
00000230: ded0 9a3c 1779 c6bd c30e 803c 62b1 d9bd
00000240: 3bff 59bd 1a1e 41bd 1e6a e13d d7f7 683d
00000250: eb3d bd3d 2f75 133e bec1 d2bb 3b01 c5bc
00000260: 08c2 1c3e c9c7 cb3d e22f 5cbe 4442 2b3e
00000270: fcfd 8f3d a484 0cbe 4b21 223e f861 46be
00000280: af88 143d 599d 0ebe 9f67 85bd b3b6 fb3d
00000290: 43c0 e2bd 32e1 ffbd 6b3a 15bd a8cf 983e
000002a0: 1924 443d e27a b1bd 1586 cd3d 919c 1bbd
000002b0: a42c 17bd c265 50be 8500 57be b8cd b0bd
000002c0: 4bd9 c9bd ad73 ebbd ad17 42bc cbf7 973c
000002d0: a6a5 e3bd 5ffe 2abd ddf6 87bd 1f11 20bd
000002e0: 7e73 f43c 8312 53be bfbe 8ebc 1219 d7bc
000002f0: 5ef6 49bd e03b 703d 15bb 473d 4de4 83bd
00000300: d8b0 85bc e733 57be 19d0 353e 269f 0a3e
00000310: e2b6 9ebc 7429 363e bba2 fbbd eecc 0bbd
00000320: 6938 4cbd ed47 973b ff83 aebd ed90 2e3c
00000330: 8e41 fc3c d780 0c3e f6b1 f53c 6c73 d83d
00000340: 906d d4bd 3e95 d3bd 8ae2 30be adcd 27be
00000350: 5399 ad3d 9850 6cbe c4bb 713e 11eb b43c
00000360: e08e 7ebc 8356 01be 7d50 04bd 1237 4bbe
00000370: a5bb 8fbd 4216 e3bc f1eb 81be 2ba1 d63c
00000380: b864 4cbe cb26 0d3e 2750 ff3d dfbd 273e
00000390: 7283 443e d92b e13c bceb 1b3e f489 41be
000003a0: bfb6 30bd 1515 dabd 52ee 1c3e 3cd5 3abe
000003b0: b349 d6bd b97c 293e cd22 2a3e 2fa3 773e
000003c0: a343 823d c13b 43be 8090 89bd 20ec b73d
000003d0: f823 ae3d eefd a3bd ac07 2fbe fb94 613d
000003e0: 2210 61bd 238d 8a3e d516 c0bd d549 283e
000003f0: 0ebf 583b 6caa dbb9 daee 65be 0d93 f5bc
0.023208655 0.2675659 0.018786795 -0.22136946 0.0136779165 0.024680875 0.23437528 0.04442144
0.026749453 0.016768852 -0.06290701 -0.026236322 -0.055478346 -0.035704613 0.07335233 -0.3657263
0.016670616 0.13910781 -0.008218236 -0.03524597 0.034256466 0.08834195 -0.010029723 0.06754843
-0.08337705 0.047958303 -0.09860232 0.03527392 -0.16210835 -0.1966446 -0.06245628 -0.2728373
0.046334583 -0.2605307 0.0021122613 0.12383972 0.00095811125 0.08690065 -0.042904872 0.09915134
0.00042374502 0.07634014 -0.06720885 0.069233246 -0.15407711 -0.024105279 -0.05390336 -0.19313373
-0.030829448 -0.04459198 0.11573048 -0.13247281 -0.07311655 -0.055341683 0.015250277 -0.10015266
-0.10503703 -0.0042213206 -0.016619552 -0.109243006 -0.039613854 -0.07012414 -0.110360615 0.03468118
0.07417508 -0.16163807 -0.23994887 -0.078095995 -0.014451911 0.08913902 -0.21969597 -0.021203209
0.08590205 -0.07949477 0.16684702 -0.002361644 0.05430209 0.09862356 0.03452602 -0.15670219
0.1127528 -0.008885822 -0.14778706 -0.27176934 -0.18028799 -0.1108244 0.03798887 -0.2285235
-0.116563596 0.04526446 0.094710045 -0.15318571 -0.08603765 -0.2310971 -0.14423785 -0.080974355
-0.19039184 0.12992601 0.17148973 -0.08227034 -0.037084557 -0.018862134 0.11406891 0.075592384
0.024509171 0.011165185 -0.0061483914 -0.0052254573 0.027229236 0.2132532 0.057082035 -0.13247359
0.02658518 0.05503567 0.08298327 0.026977574 0.020186452 0.08262563 0.05265289 -0.02870287
-0.1712978 0.05152256 -0.16036732 -0.06419308 -0.041104533 0.122562565 0.17143562 0.0061929403
0.1394317 0.14814225 0.0026893031 -0.18764442 0.05348004 -0.13138103 0.11596928 0.02544578
-0.029632514 -0.04486759 -0.039164465 -0.009460122 0.018898424 -0.09691065 0.015632039 -0.10629536
-0.053221922 -0.047147848 0.11006568 0.056876983 0.092403255 0.1440017 -0.0064317873 -0.024048438
0.15308392 0.09950215 -0.21502641 0.16724497 0.070308656 -0.13722473 0.15833013 -0.1937331
0.036263164 -0.13927211 -0.06513905 0.122907065 -0.11071827 -0.124941245 -0.036432665 0.2984593
0.047885988 -0.08666016 0.1003534 -0.03799111 -0.036907807 -0.20351318 -0.20996292 -0.08632988
-0.098558985 -0.11496673 -0.011846465 0.018550774 -0.11115579 -0.041746493 -0.06638882 -0.039078828
0.029840227 -0.2061253 -0.01742494 -0.026257072 -0.04930722 0.05865085 0.0487624 -0.06440029
-0.016319677 -0.21015893 0.17755164 0.13537273 -0.019374315 0.1778925 -0.12286898 -0.034130983
-0.049858484 0.0046167285 -0.0852127 0.01065467 0.030792978 0.13721023 0.029992085 0.1056889
-0.1037246 -0.103312 -0.17273918 -0.16387053 0.0847651 -0.23077619 0.23606783 0.022084745
-0.015536994 -0.12630658 -0.032303322 -0.19845226 -0.07018212 -0.027720574 -0.25375322 0.026199898
-0.19960296 0.1378433 0.1246646 0.16381024 0.19190767 0.027486729 0.15226644 -0.18900281
-0.04314303 -0.10648552 0.15325287 -0.18245405 -0.10463276 0.16551484 0.16614838 0.24183343
0.06360557 -0.19065763 -0.06717014 0.08980584 0.08502954 -0.080074176 -0.1709277 0.05507372
-0.054947026 0.27060804 -0.09379355 0.16434415 0.0033072862 -0.0004189791 -0.22454396 -0.029977346

transformer_encoder.layers.0.self_attn.in_proj_bias f4 [192]
00000000: 347e a7bd 8c75 87bc 496e 12bb 3c5e 94bd
00000010: d2a3 2c3d decd 01bd a95d b73b 2568 593c
00000020: 3e94 9d3d adb4 033c 6808 e5bc 866b f53d
00000030: e4a3 a43d 360b acbd 19b2 94bc 3fa9 1a3e
00000040: a346 79bc 3a4f 96bc 3c23 223e 4246 b9bd
00000050: 474d 513d d8a6 d9bc f782 0dbe 80f5 dbbd
00000060: cdc9 14bd 6080 2d3d a088 123e 7a7c bc3c
00000070: 5786 423e c1a9 76be 6e04 e4bd ce1a 223e
00000080: 0dc3 8bbd 916a ad3c fba7 1b3d 0100 c3bc
00000090: 5e9d d7bb e58f 1a3e 568e a9bd 1508 c0bd
000000a0: 27ba e83b a715 73bc d504 adbd 734a 3c3d
000000b0: abec fa3c 2bce 5a3c 9bb3 533c 268b 1e3c
000000c0: f4bb 193d 9cd1 adbd 0823 d3bd 2452 ba3d
000000d0: 9ee5 82bc f245 9dbd 328f 5c3d 248d fdbc
000000e0: c6fe 633e 7206 8c3d b4c8 35bc 555d d83d
000000f0: cdb5 413c 39f8 163d c0c8 c73d ae37 81bc
00000100: fbab 893c c02f 043d 3311 323c 6a94 46bc
00000110: 7b0a 6a3c 2fe5 c6bc b3b5 033d 275d 66bc
00000120: f32a 91bc 110c 5d3c bce5 013d 2bfd e9bc
00000130: ef2c b2bb 3784 39bc 9f42 0f3d 57c0 9abb
00000140: 451e bbba 66b8 b8bb e7de a7bb c724 8cba
00000150: 4946 bdba 1791 ddbb 692d 383b 0f19 a13b
00000160: 6a01 b93a 66f3 48bb 997e f3ba 1b39 0fbc
00000170: cc16 91bb c565 9cbb a861 233c e4b5 f6ba
00000180: f8a7 023c cc8e 84ba bc13 313c 4868 03bc
00000190: 2bd3 433b 6798 8ebb 5130 bb3a 3b5c 81bb
000001a0: 5994 0639 22a7 04bb 89c7 adba 0f22 a5b9
000001b0: e4b6 b1bb 7bf4 d63b d7f3 f5bb d50a 963b
000001c0: 46d3 9bbb 2259 3abc 004a aa3b 5a30 99bb
000001d0: 9fc8 9c3b 73c3 6fbb 84d9 4438 b1f4 7e3b
000001e0: 40c8 283b d78d c43b 066a 87bc 23de c63b
000001f0: fd51 653c 0fa2 773b 5e98 c7bb 4c89 3ebb
00000200: feca a73e 6ccf d9be a0c2 08be 5a7c 83bc
00000210: 71d5 043f 80f0 36bd 6822 5f3e 61a0 d93e
00000220: d991 99be f5cc 953e 2cd3 da3e 65d7 cc3e
00000230: 488c 0abf d37d cc3d 18c9 96bd 321f 4d3d
00000240: 61f2 f43d 2b6d a2bd de41 2d3e c310 de3d
00000250: fbdc 00bf 0489 c7be ad1a 7f3e 467f 07bf
00000260: 36e5 a03e 434c 44be 9777 33bf 8cf3 7dbe
00000270: b709 2cbd c266 16be b9ad 153e 6220 313e
00000280: 41ec a4be 57f1 1bbd 6b2e b7bd 8965 bcbe
00000290: c088 34bf 4e0a 1c3e 1114 a73e 6997 1fbe
000002a0: d28d 57be 797f cf3e 6d84 883e fd28 9e3e
000002b0: ca83 813d 3eb9 2e3e 5925 8cbd 0afc dfbc
000002c0: f1e7 3e3e 6d5e e23d da2f 743e ed1f aebe
000002d0: 1b1e 263d 2ca5 493e 2c23 72bc 9db0 11be
000002e0: 3af9 32be 659b 823d 2810 d0be bde9 1ebe
000002f0: 3ecd b0be 19fc f43e b5ca 453e 3b2c 9f3e
-0.08178368 -0.016535543 -0.0022343567 -0.07244536 0.04214842 -0.03169047 0.005595882 0.013269459
0.076942906 0.008038682 -0.02795811 0.11983399 0.08039072 -0.08400576 -0.01815133 0.15103625
-0.015214595 -0.018348325 0.15833753 -0.09046604 0.051099088 -0.026568815 -0.1381949 -0.10740185
-0.036325265 0.042358756 0.14309931 0.023008574 0.18996559 -0.24088193 -0.111336574 0.15830538
-0.06824312 0.021168979 0.038001996 -0.023803713 -0.006580039 0.15093954 -0.082791016 -0.093765415
0.007102269 -0.014836705 -0.08448187 0.045969438 0.03063043 0.013354818 0.012921239 0.00967673
0.03753276 -0.084872454 -0.10309416 0.09097698 -0.01597863 -0.07679357 0.0538475 -0.03095109
0.22265157 0.06837167 -0.011095215 0.10564677 0.01182313 0.036857817 0.09755087 -0.01577362
0.01680564 0.0322721 0.010868358 -0.012120346 0.014284725 -0.024279205 0.032155704 -0.014060295
-0.017720675 0.013491646 0.031713232 -0.028563103 -0.0054374854 -0.011323026 0.034975644 -0.0047226357
-0.0014275989 -0.0056372164 -0.0051230076 -0.0010692113 -0.0014440502 -0.006761681 0.0028103238 0.0049163173
0.0014114801 -0.0030662655 -0.0018577158 -0.008741642 -0.0044277664 -0.004772874 0.0099720135 -0.0018822518
0.007974617 -0.0010113358 0.010807928 -0.008020468 0.0029880505 -0.004351664 0.0014281367 -0.0039477623
0.000128345 -0.002024122 -0.0013258319 -0.00031496628 -0.0054234136 0.006559906 -0.0075058746 0.004578928
-0.0047554104 -0.01137379 0.00519681 -0.0046749534 0.004784658 -0.0036585003 4.693262e-05 0.0038903172
0.0025754124 0.005998354 -0.016530048 0.006068961 0.013996598 0.0037785803 -0.0060911616 -0.0029073535
0.32772058 -0.42541063 -0.13355494 -0.016050506 0.51888186 -0.044662952 0.21790469 0.42505172
-0.29994085 0.29257932 0.42739236 0.40008083 -0.541203 0.099849366 -0.07362574 0.05007858
0.119602926 -0.079309784 0.16919658 0.10843041 -0.5033719 -0.38971722 0.2491252 -0.5292858
0.31424874 -0.19169717 -0.70104355 -0.24799937 -0.042001452 -0.14687636 0.14617051 0.1729751
-0.32211497 -0.038071956 -0.089444004 -0.36796215 -0.70521164 0.15238306 0.32632497 -0.15585102
-0.21050194 0.4052694 0.26663533 0.30890647 0.06323965 0.17062852 -0.06843061 -0.027341861
0.18643166 0.110531665 0.23846379 -0.34008732 0.040556055 0.19691914 -0.014778893 -0.14227529
-0.17477885 0.063772954 -0.40637326 -0.15518852 -0.34531587 0.47848585 0.19315608 0.31088433

transformer_encoder.layers.0.self_attn.out_proj.weight f4 [64, 64]
00000000: 548f cebd 2b7c 8a3d 38c3 78bc 3a1e 43b9
00000010: 1002 6ebc 31a3 91bd e15d 98bd 8fbd 9abd
00000020: 74cb 5a3d 0a70 02bd f332 0dbd 6bd0 fc3c
00000030: 8843 0dbc 72d9 7bbd 2f86 8c3d b9e6 de3b
00000040: db99 87bd 02cf 2dbd d47e 8fbd 5675 13bd
00000050: 430e b93c 0659 7a3d dc18 24bd be9f f53d
00000060: 4b09 883d e8e5 68bd 5ca2 d53b 2f4c bebd
00000070: 0088 993d 4b55 2fbc 88d0 a63d 31ef f0bb
00000080: 1778 47bd c7e1 2d3d 0e59 fabb a58a 393d
00000090: 4193 9ebb a918 cbba 6bcc 8dbd 2b6f 86bd
000000a0: 6ada d23c 16ae f0bc eb32 8e3d 8bda 26bc
000000b0: c02e 9f3b 07e9 0d3e ee1d 503d 882f a3bc
000000c0: ef75 b2bd 7166 01bc 3c26 813d e8bf 803d
000000d0: e771 91bc e691 2fbc 3eda 96bc a34d 22bc
000000e0: d958 7fbc a047 753d c2a8 933c 6fd7 1f3e
000000f0: a423 7ebd d64b 333d 0e1c 123e 7328 563c
00000100: 25b3 733d e2f3 dc3c bdf4 3c3d e9d3 7f3d
00000110: 9327 ffbc 654b 1bbd 74be 143d 6f9c 50be
00000120: 84cd 0dbd df4a 1d3d d5b0 8cbc 69d7 6fbd
00000130: e2df f3bd 948b 78bc e8ce 66bd b9a8 6c3d
00000140: 399c 11be bf44 dc3d 844f a8bd 76ed 7a3c
00000150: beb8 efbd 2f28 d33d c37e 453c 75a4 243d
00000160: 8591 d03d faed 2cbd bfbb 023e b0b9 133d
00000170: 663e 8c3d 4c5c 00be 65d6 e1bd 63b0 7fbd
00000180: 75f3 313d f556 ff3d 083c d7bd 0b4d 60bc
00000190: 88ca febd 472d 063e a56e 27be 8a46 debc
000001a0: eb50 7dbd b214 dd3d 73b4 c03d cc17 9cbd
000001b0: 660c bfbd 5bb7 fbbd 8ae5 1d3d 67e1 7dbc
000001c0: 2ba4 a3bd 3ed0 40bc 1018 793d cd82 e83d
000001d0: dd98 7d3c cab6 683d f2fb 50bd af54 f93c
000001e0: 87dc 073e 1f91 153d 168d fcbc c271 ad3d
000001f0: ac3a a3bd 7733 f63d 95d8 713d 26b2 6d3d
00000200: de72 823c 541b 573d a42e 503c c810 16bd
00000210: a612 85bd a65b babb 7415 c13c 761a 3c3c
00000220: de0b e0bc 998f 2e3c 8602 e0bc 2671 3bbd
00000230: cff5 493d 184c a43d 7087 d6bc a323 03bc
00000240: 10d4 2cbc d913 9dbc bb59 083d f09b fdbb
00000250: 258e 303d 4257 81bd 146c 91bd 94fc b8bc
00000260: b54b 0abd d25b fcbc f8bf 0c3d c3ea 19bc
00000270: 3fe4 573c abfa bb3d b625 4d3c 2481 22bd
00000280: 4a95 99bd 3201 acbb 2dc4 433c 1781 b23d
00000290: 03f7 1e3c 4dd3 16bd 68f7 143d b76f 933b
000002a0: 8004 5d3b 2e70 c63c e5b7 f5bb 3dfa 0bbd
000002b0: 92c9 173c 286f d93c 6b68 5c3c 81cc 87bc
000002c0: eda9 f2bb d152 93bd d757 bc3c 1663 a7bc
000002d0: ec31 edbc 2b52 843c d709 503b 1e93 e2bc
000002e0: 5f85 23bd da83 d13c 44b6 ee3c ba39 e93c
000002f0: 11d8 ae3b 425a ec3c 3457 55bc 8b9c 703b
00000300: 6bba c8bb 1a7c 14bd 21f8 82bc 1329 28bd
00000310: 9b0b 1dbc 3404 173c c86a 6cbd 9704 a9bb
00000320: 9f69 dc3a bff4 93bd fe65 253c ddaa 07bc
00000330: 47bb cb3b 90c9 95bd e87a bfbb b975 b8bd
00000340: 5213 9c3d 3f9b 70bd 449a 1b3d 36db edbd
00000350: 0399 2a3d 250b b03c 8ada c6bd 25f2 83bc
00000360: f3ab 4f3c 2418 6d3d 6da0 dd3c ef46 b3b9
00000370: 9c54 3cbc b674 813c e6df f03b b3d9 01be
00000380: 297b 353c f7fb 29bc be32 6fbd 5101 183d
00000390: 71a1 0ebb 11b6 90ba 4fad 2cbd 526c 103d
000003a0: 2c73 09bd f6d9 993c ba68 1abd f20c 57bc
000003b0: a701 f53c dd93 7dbd ba6c 2bbc 0d61 53bd
000003c0: ac5a b63d fb4f 003d b476 593b df81 22bb
000003d0: 12be ac3c 3b15 5c3c f679 8b3c 73f4 77bd
000003e0: e346 d5bc 2e9a 85bd cbc9 b83b e22c 203d
000003f0: d504 93bd 26e1 6a3d 84fc 403c bc37 d2bc
-0.100859314 0.067619644 -0.0151832625 -0.0001860791 -0.014526859 -0.071112044 -0.07439781 -0.07555687
0.053416684 -0.03184513 -0.034472417 0.0308611 -0.008622058 -0.06148667 0.06861531 0.0068024066
-0.066211425 -0.042433746 -0.070066124 -0.036000572 0.022589808 0.061120056 -0.04006277 0.11993359
0.066423975 -0.05685988 0.006519599 -0.092918746 0.07496643 -0.010701488 0.08145243 -0.0073527326
-0.04869851 0.042451646 -0.0076400107 0.045298237 -0.0048393314 -0.001549502 -0.06923755 -0.06564172
0.025738914 -0.029379886 0.069433056 -0.010183941 0.004857868 0.13858424 0.050809793 -0.019920126
-0.087139 -0.007897959 0.06306121 0.06286603 -0.017754508 -0.010715937 -0.018414613 -0.009906205
-0.015585148 0.05988276 0.018024806 0.15609525 -0.06204571 0.043773495 0.14268515 0.013071167
0.059497017 0.026971761 0.046131838 0.062457953 -0.0311468 -0.0379137 0.036314443 -0.20372175
-0.034619823 0.03840148 -0.017174164 -0.05855504 -0.11907937 -0.015169997 -0.056349665 0.057778094
-0.1421975 0.107553 -0.082182914 0.015315404 -0.11705159 0.10310399 0.012054148 0.0401959
0.10184006 -0.04221914 0.12766932 0.036065757 0.06847839 -0.12535208 -0.11027221 -0.062424075
0.04344507 0.124677576 -0.10509497 -0.0136902435 -0.124409735 0.1310321 -0.16350801 -0.027133245
-0.061844748 0.10794963 0.09409418 -0.076217264 -0.09328537 -0.12290832 0.038548984 -0.015495635
-0.07990297 -0.011768399 0.060813963 0.11353073 0.01547834 0.056814946 -0.051021524 0.030435888
0.13267718 0.03651535 -0.030828994 0.08468963 -0.07970175 0.12021535 0.05904444 0.058031224
0.015923914 0.052516297 0.0127064325 -0.036637098 -0.064976975 -0.005687195 0.0235698 0.011480918
-0.027349409 0.010654354 -0.027344953 -0.045762204 0.049306687 0.08022326 -0.026187629 -0.008004102
-0.0105486065 -0.019174503 0.0332887 -0.0077395365 0.04310431 -0.06315471 -0.071006924 -0.022581376
-0.033763606 -0.030805502 0.034362763 -0.00939435 0.013176977 0.091786705 0.012521198 -0.03967394
-0.07499178 -0.005249166 0.011948627 0.08716028 0.009702447 -0.036822606 0.036368757 0.0044994014
0.0033724606 0.024223413 -0.0074987286 -0.034174193 0.009264367 0.026542261 0.01345263 -0.016577007
-0.0074055106 -0.0719353 0.022991104 -0.02043299 -0.028954469 0.016152462 0.0031744146 -0.027658042
-0.039922114 0.025575567 0.029139645 0.028469909 0.0053358157 0.028851632 -0.013021279 0.00367144
-0.0061257384 -0.036251165 -0.015987458 -0.041054796 -0.0095852865 0.009217311 -0.057719022 -0.005158018
0.0016816146 -0.07224416 0.010095118 -0.008280483 0.0062173936 -0.073138356 -0.005843509 -0.09006829
0.076208726 -0.058741804 0.037988916 -0.11614077 0.04164983 0.02148969 -0.09709652 -0.016106674
0.012675273 0.05788435 0.027054036 -0.0003419439 -0.011494782 0.015802722 0.0073509095 -0.12680702
0.011076727 -0.0103750145 -0.058398 0.03711063 -0.0021763707 -0.0011040588 -0.042157467 0.035259552
-0.033557102 0.01878069 -0.03769753 -0.013125645 0.029908014 -0.06190859 -0.010462934 -0.051606227
0.08904013 0.031326275 0.0033182325 -0.0024796647 0.021086726 0.013432796 0.017025929 -0.06053586
-0.026034778 -0.06523548 0.00563929 0.039105304 -0.07178656 0.057343625 0.011778954 -0.025661342

transformer_encoder.layers.0.self_attn.out_proj.bias f4 [64]
00000000: b719 133f 9e56 6d3f 0144 2fbf 93a7 2e3f
00000010: a9dd 9d3f bd42 043e 7746 de3d 3355 02bf
00000020: a962 993e 7f14 c03e fcec 25bf 63b9 39be
00000030: c5ab 1b3f 6927 86be e0c3 16bf b7b5 cd3e
00000040: 46b0 16bf 31b1 803f e1cf 413f eaf2 a4be
00000050: c5c1 26bf beb7 bcbe 507f 083e 2d0c 253e
00000060: 4338 a7bf 608d f13e fac0 323e a0f4 7c3e
00000070: c81c c0bd a971 313e 90c6 1d3f 525a 4dbf
00000080: 361a 83bf 7092 c53e 7838 09bf 72a3 25bf
00000090: d071 92bf d8e9 d63e 713a 1d3f d2ae 69be
000000a0: 0097 2fbe 7a01 3e3f f1f8 d03d 294c cc3d
000000b0: 45a5 133e d7b0 2a3e 6a9c 4fbe 3e6a 14bf
000000c0: 2a3e 283f b29f 0f3e 65fb 433f c5fe fb3d
000000d0: 6323 b1bd 136c 08bf c4af 6d3f 352d cbbe
000000e0: 14da 7fbf 4077 20bf 093a 1bbf 34a7 4d3e
000000f0: 061a 8e3f 21ab c7bd 649b 4bbc a08f 58bf
0.5746111 0.9271029 -0.6846314 0.6822445 1.233327 0.12916084 0.10853284 -0.50911254
0.29958084 0.37515637 -0.64814734 -0.18137126 0.60808975 -0.26201943 -0.5889263 0.401777
-0.5886272 1.0054075 0.75707823 -0.3221658 -0.6513942 -0.36858934 0.13329816 0.16117926
-1.3064045 0.47178173 0.17456427 0.24702692 -0.093804896 0.17328514 0.6163111 -0.8021594
-1.0242374 0.38588285 -0.5360179 -0.6470252 -1.1440983 0.41975284 0.614173 -0.22820595
-0.17147446 0.74221003 0.10203732 0.09975464 0.14418514 0.16669022 -0.20274511 -0.5797461
0.65719855 0.14025763 0.7655547 0.12304453 -0.086493276 -0.5328991 0.9284632 -0.39682928
-0.99942136 -0.6268196 -0.6063543 0.20083314 1.1101692 -0.09749437 -0.012427185 -0.84594154

transformer_encoder.layers.0.linear1.weight f4 [128, 64]
00000000: b0ad 9f3d d3dd 7d3e 3958 f23d a6cf 423d
00000010: 74ca 88bd 3786 153e aeb2 693d f391 9b3d
00000020: ed0e 4ebe 999a 2b3e b918 34be dda4 18be
00000030: b541 223d 37bb 133e 21c1 bfbc bb52 b33c
00000040: 712f ab3d a1af 0a3e fb9d 0b3e 4a5a 8fbd
00000050: 00f2 91be 13c9 06be 05c2 953d 483c e3bc
00000060: 1c37 70bd e6df 833c b46d aa3c 1200 1ebe
00000070: 9e01 13be fce9 073d 5ee7 03be 8f4d b2bd
00000080: e4fe 61be 0461 2fbd 9d38 803e d288 a7bd
00000090: 2695 353c 6ba7 0f3d 1c99 d83d 7c91 5abe
000000a0: ca34 343d c958 92bc 2727 0f3d 88fc 983d
000000b0: 0be7 473e 7a64 843c ec9e d4bc dab7 023e
000000c0: ca63 b0bd 1626 5abc 6ab5 3fbb 9054 9f3d
000000d0: 91ae 7bbe 9140 29be 3353 c8bd f9f7 83bd
000000e0: 4491 e23d 649a 5a3e 300e aa3b f9ac b8bd
000000f0: 841f d1bd c97c 42bd af25 d5bc 5738 48bd
00000100: b390 923c 1201 90bd ae21 d7ba f749 543e
00000110: ea1e 04be 072f 053e 07ba 253d d473 3a3e
00000120: 6707 453d 2a0a ff3d b3d3 82bd c09e e2bd
00000130: 59a9 283d 1b42 433c 7e14 5bbd 69bb ccbe
00000140: 8b16 04bd 80f1 d83d a7ae 47be 5bf7 12bd
00000150: c538 e7bc 1cdf 24be 6388 b03c b4d0 b2bd
00000160: 3fe4 303d 82c1 2a3d 4ea9 1e3e 4855 bf3e
00000170: a34e ad3d c442 3c3d 3df7 243c 67bb 44be
00000180: eaad f7bd 6c9f 4bbe 0cd3 b3bd 149e 3cbe
00000190: 29af 4d3e c4b8 313e e89b 283d edd6 5b3d
000001a0: c72e 92bd ac13 9d3d 7513 42be 209f 523e
000001b0: 173d 81be 49e4 cebd bfd9 9e3c 31dc 673e
000001c0: 00ce 0dbe a281 8fbc d55c 79bd 4249 cfbd
000001d0: e57d 0e3c e6e0 b53d 079a 4ebd 50ab 79bd
000001e0: d10a b93d a0b4 9cbb d340 1cbe f61a 8cbd
000001f0: 84c2 07be ea77 853d 4ff0 7d3b 47b2 3d3e
00000200: 9244 d1bc 7901 2c3d f3d0 9c3d 74a6 5b3e
00000210: ae51 0ebe 6a05 1b3c 631d 9e3d 7818 19be
00000220: 0f81 2dbd cb01 ddbc 84f3 5ebd 7a25 2d3e
00000230: 80d0 b73d 7bcd 283d 5a76 853e 686b 66be
00000240: 8849 463d f978 d8bc 7b51 343d 56e3 193e
00000250: d6cd d83d efa2 d1bd 846e 303d db7d a63d
00000260: 1a03 02bd 53dc dfbd 1dad e73b c488 1c3e
00000270: 49ce 05be 7237 b3bd 98e9 b7bd cebb c6bd
00000280: 3948 16be b3ed 4bbe 88c6 cd3e c452 2b3b
00000290: 1c32 213e 74b7 ec3d 7490 b1bd c93a 2abe
000002a0: 29cc 43bd f52b 3e3e 2b47 3e3d a76b 253e
000002b0: 6c08 153e b919 78bc 9ec4 aabb cc67 abbc
000002c0: 9202 10be c306 9c3e 28b3 84be 5c45 f4bd
000002d0: 85df 023e ef6b 46be 6c77 18be 5d9e 223e
000002e0: a2e2 24be ea7d 60bd 95d0 f63d 4ffb ba3d
000002f0: 1b3a e13d 1ff1 543d 6c07 d439 ac85 8e3d
00000300: 4579 023e 9d1a 743e 2eaf d53d 66e0 5dbd
00000310: 7de7 b4bc 1ded c43b 41a3 fd3b d817 c73d
00000320: 087d 3abe 278c 493a fd8b 9cbd a2b9 123e
00000330: 2a94 81bc 5aa2 1c3d 0f4e a3bd 1bf3 6d3e
00000340: 7a02 c83d adfb 7c3e 3d79 313d b469 26be
00000350: f02a 81be aa92 7cbc 2657 ebbd a19a 51bd
00000360: 49d4 b6bd 5a0e 983d 5273 3a3e 3d4a 39be
00000370: a90d 13be 42fe e33d 3c21 44be 9f88 033d
00000380: a97d 56be c7ce 25bd 7955 893d 5cf6 bdbd
00000390: bd41 cdbb 511e b83d 0678 bc3d d531 0cbe
000003a0: 3f37 ae3c 6a95 3ebd ef39 50bc f924 8bbd
000003b0: 61c8 ca3c bbf7 18bd effb 993b 2562 0bbe
000003c0: 09ab 283d dc0c 05be 5617 153e f031 54bd
000003d0: 3e4f 983d cb88 17bd b421 71be 930d 18bd
000003e0: 3631 163e d0e3 0f3e 49f6 7e3d 1ee7 9b3d
000003f0: 47b5 2ebe bd29 1e3c 2a4d 5dbe 9279 90bd
0.077968 0.2479165 0.118332334 0.04756131 -0.0667924 0.1460198 0.057055168 0.07596197
-0.20122881 0.16758193 -0.17587556 -0.1490664 0.039613444 0.14426886 -0.02340752 0.021890035
0.08358658 0.1354356 0.13634484 -0.06999643 -0.28504944 -0.13162641 0.07312397 -0.027738705
-0.058646306 0.016097974 0.020804264 -0.15429714 -0.14356086 0.03318213 -0.12881228 -0.087061994
-0.2206989 -0.04281713 0.25043193 -0.08180393 0.011082923 0.03507177 0.10576078 -0.2134456
0.043995656 -0.017864602 0.034949448 0.074700415 0.1952173 0.016161192 -0.025954686 0.12765446
-0.08612783 -0.013314744 -0.0029252418 0.07779801 -0.2457831 -0.16528536 -0.09781494 -0.064437814
0.110628635 0.21347958 0.0051896796 -0.09017367 -0.10211089 -0.047482286 -0.026018946 -0.048881855
0.017891264 -0.07031454 -0.0016413236 0.2073134 -0.12902418 0.13006221 0.040460613 0.18208247
0.048102763 0.124531105 -0.06388035 -0.110654354 0.041177128 0.011917616 -0.05348634 -0.39986733
-0.03224806 0.105929375 -0.19500218 -0.035880428 -0.028225312 -0.16100734 0.02154941 -0.08731213
0.043186422 0.04168845 0.15494272 0.37369752 0.084622644 0.04596211 0.010068712 -0.19212113
-0.12093718 -0.19885033 -0.08780488 -0.18419677 0.2008635 0.17355639 0.04116431 0.053671766
-0.07137828 0.07669768 -0.18952735 0.20568514 -0.2524192 -0.10102136 0.019390939 0.2264259
-0.13848114 -0.017517868 -0.060879547 -0.10121395 0.008697008 0.088807866 -0.05043986 -0.060954392
0.09035266 -0.0047822744 -0.15259103 -0.0684108 -0.13257796 0.065170124 0.0038747971 0.18525039
-0.025545392 0.041993592 0.076570414 0.21450216 -0.13898346 0.00946174 0.07720449 -0.1495074
-0.042359408 -0.026978394 -0.054431453 0.16908827 0.08975315 0.041211586 0.26066858 -0.2250191
0.04840997 -0.026424872 0.04402302 0.15028128 0.10586135 -0.10236155 0.043074146 0.08129474
-0.03174124 -0.109306954 0.0070701973 0.15286547 -0.13066973 -0.0875081 -0.08980101 -0.0970379
-0.14675988 -0.19914894 0.4019053 0.0026141861 0.15741771 0.115584284 -0.0867013 -0.16623987
-0.047802124 0.18571456 0.04645459 0.16154347 0.14553994 -0.0151428515 -0.005211427 -0.020923518
-0.1406348 0.3047391 -0.25917935 -0.11927292 0.12780578 -0.19377111 -0.14889306 0.15880723
-0.16102079 -0.05480758 0.120515026 0.091299646 0.10997411 0.051987763 0.0004044132 0.0695909
0.12741573 0.23838277 0.104338035 -0.05416908 -0.022083038 0.0060097114 0.0077404086 0.09721345
-0.18211758 0.0007688426 -0.07643888 0.14328626 -0.01581772 0.038240768 -0.07973873 0.23237269
0.09766097 0.24705382 0.043328512 -0.1625126 -0.2522807 -0.015415827 -0.114912316 -0.051172856
-0.08927209 0.07424612 0.18208054 -0.18094726 -0.1436068 0.1113248 -0.19153303 0.032112714
-0.20946373 -0.0404804 0.06705756 -0.09275505 -0.00626394 0.089901574 0.0920258 -0.13690884
0.021266578 -0.04652921 -0.012709125 -0.06794161 0.024753751 -0.03734563 0.0046992223 -0.13611658
0.041178737 -0.12993187 0.14559683 -0.051805437 0.07436989 -0.03699569 -0.23548013 -0.03712232
0.1466721 0.14051747 0.062246595 0.076124415 -0.1706134 0.009653506 -0.21611467 -0.07054438

transformer_encoder.layers.0.linear1.bias f4 [128]
00000000: 2da0 8abd c0fb 2dbd c97d 80be 0926 c2bd
00000010: ea09 1cbd f04f 93bd 1534 33be 2ae4 18be
00000020: 236f 61bd 7ef7 eabd f9c0 36be b6b0 c2bd
00000030: 253e f8bd f173 6abe 73ee 9cbd 460a dd3c
00000040: 372f d7bd c245 9cbd c97c 2bbe bdea ebbd
00000050: 8d46 08be 4cc1 a2bd 7551 63be 9fa0 5cbe
00000060: 17c3 4ebe ce33 25be 9e11 f7bd add2 30be
00000070: b33b 06be fc24 7fbe 9477 14be d4c9 0fbe
00000080: 37e8 e63b b671 56be d4ff 1dbe 9ca0 86bd
00000090: 2359 453c d27c 8ebd 51af f9bc ef16 a5bd
000000a0: 1acc b7be 8f46 77be 4e71 41be 14d6 2cbd
000000b0: 3967 b1bd 028e c6bd 1a30 4dbe 7cbf 01be
000000c0: de76 1ebe d689 24be 7f85 06be 69f3 07be
000000d0: 114a 3ebd 84ae c8bd 0f4f 4bbe 1767 eebd
000000e0: 00d4 06be 8823 86bd 532a 46bd 1334 cbbc
000000f0: a1fd 82be 1aee c5bd f855 8ebd 6b61 54be
00000100: e93c 13bd ec25 f4bc 5cb8 acbd 4fa9 9abd
00000110: df36 e2bd b914 e6bd 4530 9bbe f9ab 47be
00000120: eee9 a6bc 34f2 a2bd 6527 fabd 4eab 93be
00000130: 47d7 fcbd 2bb7 e3bd bfe6 d63c b161 66bd
00000140: 906d 47be ea54 55be 5957 67be 07a0 80bd
00000150: 07ab 2abe 903b 99bd 1879 dfbc 9240 883d
00000160: 1b83 5bbd 3648 aebd 6595 24be a35d a5bc
00000170: f7f1 94bc 18e8 c5bb ef47 93bd 3e43 9bbc
00000180: 34fa d3bd f2bd 38be 9dd9 9fbd 19e7 0bbd
00000190: 2db8 a7bd 08ca b2bd 2c39 013c 1925 80be
000001a0: 8ae6 eebd 3e52 8fb9 27bb 33be c63c 03be
000001b0: 0108 4abe a305 40be 4038 b5bd 5b74 43be
000001c0: 0407 d3bd 7701 7cbe 4bfc 70bd b87c 9cbd
000001d0: fbe4 31be 1a1f d4bd b169 51be fb58 13be
000001e0: 8232 80bc 6e3b 80be dd5d b8bd 9866 2cbe
000001f0: 49e8 2cbe a94b 2abe 3824 12be 7adb 44bd
-0.06768832 -0.042476416 -0.25095966 -0.09479911 -0.038095392 -0.07192981 -0.17500336 -0.14930788
-0.05503763 -0.11472987 -0.1784705 -0.09506361 -0.12121228 -0.2289579 -0.07662668 0.026982438
-0.105070524 -0.07630493 -0.1674682 -0.11519382 -0.13308163 -0.07947025 -0.22199042 -0.21545647
-0.20191608 -0.16133043 -0.12063907 -0.17267866 -0.13108711 -0.24916452 -0.1449874 -0.14041835
0.007046725 -0.20941815 -0.15429622 -0.065736026 0.012045178 -0.06957401 -0.030479105 -0.08061015
-0.35897905 -0.2414801 -0.18890879 -0.04219635 -0.08662266 -0.096950546 -0.2003788 -0.12670702
-0.15475032 -0.16068205 -0.13136862 -0.13276447 -0.046457354 -0.09798911 -0.19854377 -0.116407566
-0.13166809 -0.06549746 -0.048380207 -0.024805104 -0.25584128 -0.09664555 -0.06949991 -0.20740287
-0.03594676 -0.029803239 -0.08433601 -0.07551824 -0.11045622 -0.11234421 -0.30310264 -0.19499196
-0.020375218 -0.07956353 -0.12214545 -0.28841633 -0.123457484 -0.11118921 0.026233075 -0.05624551
-0.19475389 -0.20833173 -0.22591914 -0.06280523 -0.16666804 -0.07482064 -0.027279422 0.06652941
-0.05359183 -0.08509867 -0.16072614 -0.020186251 -0.018181784 -0.0060396306 -0.071914546 -0.018952962
-0.10350457 -0.18041208 -0.07805178 -0.03415594 -0.081894256 -0.08729941 0.007887166 -0.25028303
-0.116650656 -0.0002733636 -0.17551862 -0.12816152 -0.19729616 -0.1875215 -0.088486195 -0.19087355
-0.103040725 -0.24609934 -0.058834355 -0.07640976 -0.17372505 -0.10357495 -0.20450474 -0.14389412
-0.015649084 -0.2504534 -0.09002278 -0.16836011 -0.16885485 -0.16630425 -0.14271629 -0.04806087

transformer_encoder.layers.0.linear2.weight f4 [64, 128]
00000000: 3d48 8dbd 2d5e 29bd 2c7b 403d e9dd ec3d
00000010: 4323 ddbc 9b6a 09bd c0c7 e93d b5ad 07be
00000020: 35c3 093e 49e2 993d ac8f 5cbd 0280 06be
00000030: 82c4 74bc 3c98 15be 44b0 54bd 668e 693a
00000040: 3b63 493d b280 993e d519 bf3d 671c 1bbe
00000050: 77e4 34bd a7fb f6bd 78d3 783c 067a 93bd
00000060: f3d9 413d 61b2 273d fb02 073e 1804 333e
00000070: 3840 e0bd 5c7d 59bd e7b0 473e 48bc 4abc
00000080: a8f4 11bd 63dc 7fbe e50a 713e 6eaf b13d
00000090: aab6 96bc 957f 0cbd e163 60bc bf4f a83d
000000a0: e403 8abe a860 9bbc 355b 6ebe ba59 aebd
000000b0: 3fba adbd 8815 babd 1c2d 50bd 7020 013d
000000c0: 33bb 5b3d 84ae 1bbd 3fbe 9a3e 5fb7 b63c
000000d0: a273 2cbe 4788 213e cb64 bf3d e8e3 853d
000000e0: 24d9 553d 8821 debb aec8 773d 5bf7 623d
000000f0: 7cc3 79be f51b d83d 88a3 003d 749b 88bd
00000100: e95f 323e 342f f6bc 8e14 e9ba f4eb 3e3e
00000110: 43fa 1cbe 13fe 2d3d b47a cb3d a703 c53d
00000120: db90 893d 4bcd b73d 0a19 29bc 8ab0 1bbe
00000130: 91ce f5bd 6bf1 c73c cbda c1bd 1dee 41bd
00000140: 8c76 9b3d 282a 0c3e 7031 cb3d dcf6 2cbd
00000150: 5a38 40bd efe2 bebd 35d3 e9bd 3349 43bd
00000160: fc0c 1bbd 2c4e 50bd 983d f23d 92d6 0b3e
00000170: 842f 0c3d e21b 50bd 90be 06be 9978 393e
00000180: 5079 e0bd 34c8 cd3d 65b0 313e b695 19bd
00000190: 613a 02bd 802c 39be ed09 853d 5b01 223d
000001a0: 9513 42be f206 193b 2b4e 15be bd69 f2bc
000001b0: fea0 0a3d 9f89 22bd 21dd 06bd 14b1 0bbd
000001c0: 8126 9fbd 33f9 2cbe 4e65 333e 2775 07be
000001d0: 8823 d1bc f599 013e b505 dbbc ab76 00be
000001e0: 36bc fc3c 0f50 0cbe 098a 843e 1b19 b2bd
000001f0: 0337 0d3b ef54 3ebd e58b 363d bad6 f7bd
00000200: d008 143e 7a37 75bd d7f6 9d3d 4f61 593e
00000210: 51db 01be d0a5 99bc 1646 213c 8331 8bbd
00000220: d0c3 bf3d 7bb0 803e ff52 9ebc 218d 4b3d
00000230: 3c23 e43d 5404 8f3d fea9 3cbd b32e a2bc
00000240: 11e4 723d b3bc b1bd 1403 5c3e 168c afbc
00000250: 850c e5bd e589 ef3d 042a cc3c 4a28 ab3c
00000260: b8be cabd e4dc 5d3c 123a 243d 8e10 9ebd
00000270: 919a d03d 2504 643d 8f22 13be ab58 ebbd
00000280: b107 0bbe 6049 233e 5a59 3bbe 7461 1b3e
00000290: 0bb4 54bd 64c5 46bd 5898 b63c 78ca b33d
000002a0: 6f31 b13a 8656 023e c750 983d c546 ed3d
000002b0: b481 b83c 8aec 0bbe 1805 a1bc 43cf cc3c
000002c0: 3655 8a3c 8c74 09be 779e e03d f2c5 513e
000002d0: b5f4 d03d a0e7 5cbc b3b8 37bc 9aba 2c3d
000002e0: 4cbf cd3c 931f cf3d 2679 293e 38e9 9a3b
000002f0: c9b3 6dbd cdc5 843e 9a14 9f3d d074 45bb
00000300: 9258 093e 6842 093d 655e 413e bb11 f1bd
00000310: 2b0b 863e f84c 0b3e 5fc6 d0bd ca66 573e
00000320: 2225 afbd a5fc 073e fa40 a13d 85a1 943a
00000330: 4bb8 2b3d 1105 3f3d 6bb1 bfbd b8d8 323e
00000340: abf5 933a 9c34 823d fb82 093e 4e1c 173e
00000350: 8c76 c53b 3c87 ad3c 0576 fc3d a5c2 d13d
00000360: 9b35 5f3d 487e c63d b6b2 093e 1290 273e
00000370: 2b1f 743d 82b0 683e 9bd7 603e 2b3b de3b
00000380: 058c 983d 3f5c 85bd 6021 d43c f507 1a3e
00000390: 8f49 36bd 28ec 97bd a93a c23d 5ae5 a23c
000003a0: 7f64 353d a918 173d a6cc 38be e087 c2bd
000003b0: 1188 793d 67d2 95bb fc62 c3bd 97e4 993e
000003c0: d842 0ebd 4163 90bd f525 053e 72c9 1cbc
000003d0: 1fe7 c23d e643 963c bee9 1d3e 3eb8 bfbc
000003e0: 13bc 15be d29c 1b3e 07fd 093e a8b0 763e
000003f0: 7cbc 2bbc ac0d 85bd 60c9 a33d 8f4b 033e
-0.06898544 -0.04134958 0.046992466 0.115657635 -0.026994353 -0.033548933 0.114150524 -0.13249858
0.13453372 0.075138636 -0.053847954 -0.13134769 -0.014939429 -0.14608854 -0.051925912 0.00089094636
0.0491669 0.29981 0.09331099 -0.15147553 -0.044163194 -0.120597176 0.015187137 -0.072010085
0.047326993 0.0409416 0.1318473 0.1748203 -0.10949749 -0.053098068 0.19501077 -0.012373991
-0.035633713 -0.24986415 0.23539312 0.08676039 -0.018397648 -0.03430136 -0.013695688 0.08218335
-0.26956093 -0.018966988 -0.2327698 -0.08513208 -0.08482789 -0.09086138 -0.05082427 0.031525075
0.053645324 -0.038008228 0.3022327 0.022304235 -0.16840985 0.15774642 0.093453966 0.0653761
0.052209035 -0.0067788996 0.060494117 0.055411678 -0.24390978 0.105522074 0.031405956 -0.06670275
0.174194 -0.030051805 -0.0017782615 0.18644696 -0.15329842 0.042478632 0.09935513 0.09619837
0.06717082 0.089747034 -0.010320911 -0.15204063 -0.1200229 0.02440711 -0.094655596 -0.047346223
0.075909704 0.13687956 0.09921539 -0.04222761 -0.04692874 -0.09320628 -0.11417238 -0.04767723
-0.03785418 -0.0508558 0.11828154 0.13656071 0.034225002 -0.05080784 -0.13158631 0.1811241
-0.109606385 0.10047951 0.17352445 -0.03749629 -0.031793956 -0.18083382 0.06496034 0.039552074
-0.18952782 0.0023350087 -0.145806 -0.029591436 0.03384494 -0.039682027 -0.03292573 -0.03410442
-0.07771016 -0.16891937 0.17519113 -0.13228284 -0.025529638 0.12656386 -0.02673612 -0.12545268
0.030851465 -0.13702415 0.25886562 -0.08696195 0.0021547682 -0.046467718 0.044567008 -0.12101503
0.14456487 -0.05986736 0.077130966 0.21228527 -0.12681319 -0.018755823 0.00984337 -0.06796553
0.0936352 0.25134644 -0.019326685 0.049695138 0.11139533 0.069832474 -0.046060555 -0.019797659
0.059299532 -0.0867857 0.21485549 -0.021429103 -0.111840285 0.11696223 0.024922378 0.020893235
-0.09899658 0.013541434 0.040094443 -0.07718001 0.10185731 0.055668015 -0.14368652 -0.114915214
-0.13577153 0.15945959 -0.18295804 0.15173894 -0.051929515 -0.04852809 0.02228944 0.08778852
0.0013518761 0.12728319 0.07437282 0.11585764 0.022522785 -0.13664451 -0.01965575 0.025001174
0.016886335 -0.13423365 0.10967725 0.20485666 0.10202924 -0.013482958 -0.011213469 0.042170145
0.025115632 0.10113444 0.1655012 0.004727509 -0.058032785 0.2593216 0.07767601 -0.003012944
0.13412693 0.033510596 0.18883665 -0.1177096 0.26180395 0.1360358 -0.10194086 0.21035305
-0.085520044 0.1327997 0.078737214 0.001133964 0.041923802 0.04663569 -0.09360012 0.17465484
0.0011288425 0.06357691 0.13428871 0.14756891 0.006026095 0.021182649 0.12327198 0.102422036
0.05449448 0.09692055 0.13447079 0.16363552 0.059600037 0.22723582 0.21957247 0.0067819557
0.074485816 -0.06511735 0.02589482 0.15042098 -0.044503745 -0.0741809 0.09483845 0.019884754
0.044285294 0.036888752 -0.18046817 -0.09498572 0.06092078 -0.004572201 -0.09540364 0.30057213
-0.034731716 -0.07050181 0.1300276 -0.009569513 0.09516739 0.018342923 0.15421197 -0.023403283
-0.14622526 0.15196541 0.13475429 0.24090827 -0.01048195 -0.06496748 0.079973936 0.12821792

transformer_encoder.layers.0.linear2.bias f4 [64]
00000000: 2c1f 2d3d 2a78 5fbc f619 26bd 9347 6f3d
00000010: cf7a 053d 3111 393c eaaf dbbc 13d2 d83c
00000020: b506 0bba a044 87bd 8687 70bd 0b5f 86bc
00000030: e893 6e3c 9d45 ddbd 611d 0dbd bd4b a63c
00000040: 931c 58bc f6af a23d 423e f43c df9a b6bd
00000050: 75bb 0c3e 8037 d03c 15ba 233d 03d0 b83c
00000060: 260b c93b 9f0b c83d 3fff 32be 41d8 a2bc
00000070: 0a6f db3c 955c a3bd 94e4 e9bd 61d3 26bd
00000080: 8f6a 2dbc 0a6a cdbb 894b 1bbc 5bce 85bd
00000090: f48e 853d a8e7 07bd de65 a13d 936a 933c
000000a0: 299e 26be 11fb 2b3e b496 c43c 8fea ba3c
000000b0: 17d3 03be a09f 1b3d b6d7 973d 8278 a6bd
000000c0: 51f3 213d c3bc c2bc c5b8 653d 21a1 d63d
000000d0: 02d3 9abd 2081 fbbd 5d48 403d adab 34bd
000000e0: 9939 143d 820b e5bd 503c 0d3d 449a 13bc
000000f0: bdfb c4bb 6b4b 8f3d 8fd4 f2bc 6556 eebc
0.042266056 -0.013639489 -0.040552102 0.058417868 0.032587823 0.011295603 -0.02681728 0.026467359
-0.00053034286 -0.06604886 -0.058722995 -0.016402742 0.014561631 -0.10804293 -0.034451846 0.020299787
-0.013190406 0.07943718 0.029814843 -0.08916258 0.13743384 0.02541709 0.039972384 0.022560125
0.006135362 0.097678415 -0.17480181 -0.019878509 0.026786346 -0.07976643 -0.11420551 -0.04072893
-0.010584488 -0.0062687444 -0.009478458 -0.065335 0.06521407 -0.03317991 0.07880758 0.017995154
-0.16271271 0.16794993 0.023997642 0.022816924 -0.12873493 0.037994027 0.074141905 -0.08128454
0.039538685 -0.02377165 0.056084413 0.10479952 -0.07559778 -0.12280488 0.04694401 -0.044109035
0.036187742 -0.111838356 0.034481347 -0.009008948 -0.006011455 0.06996807 -0.029642371 -0.02909393

transformer_encoder.layers.0.norm1.weight f4 [64]
00000000: 1648 783f ae04 3b3f 6eb5 923f 0b1b 883f
00000010: b756 8f3f 17ef 8f3f 3277 4a3f 3ec7 503f
00000020: 652a 6f3f 0b03 963f dd30 6c3f de20 333f
00000030: 9e70 643f d7a1 973f 1499 663f 5a41 a83f
00000040: 368b 8c3f 8a58 863f c30a 2e3f bb58 673f
00000050: b667 813f f2d6 7d3f a880 423f 76bd 293f
00000060: 83ff a03f e475 473f d759 3a3f c496 9c3f
00000070: 469d 5a3f 6fe8 8c3f ea8f ab3f 928a 6f3f
00000080: f790 983f 9bdd 993f d3ee 9f3f f749 483f
00000090: 21b0 443f 17d3 ff3e 5214 6e3f b73e 8e3f
000000a0: b739 2e3f b6dc 393f d738 c03f cf4a 933f
000000b0: 1731 f33e 4c08 5b3f 2371 823f 291e 963f
000000c0: c2cc b23f a807 733f 485b 943f fd7f 7c3f
000000d0: 5209 c43f 168e 863f 82ec a13f 21a0 843f
000000e0: 56b7 be3f 6187 1d3f 6c67 1f3f b469 6d3f
000000f0: 0d5a 803f 9138 403f f1f0 5a3f 0b5b 393f
0.96984994 0.73054016 1.1461618 1.0633253 1.1198338 1.124484 0.7908813 0.8155402
0.93424064 1.1719679 0.9226206 0.69972026 0.8923434 1.1846265 0.9007733 1.3144944
1.0979984 1.049577 0.6798517 0.90369767 1.0109775 0.99156106 0.75977564 0.6630472
1.2577976 0.7791426 0.72793335 1.223351 0.8539623 1.1008433 1.3403294 0.93570817
1.191924 1.2020754 1.2494758 0.7823786 0.7683125 0.49965736 0.92999756 1.1112889
0.68056816 0.72602403 1.5017346 1.1507205 0.4749839 0.85559535 1.0190777 1.1727954
1.3968737 0.9493356 1.1590357 0.98632795 1.5315344 1.0512111 1.2650301 1.0361367
1.48997 0.61534697 0.62267184 0.92739415 1.0027481 0.75086313 0.855239 0.72404546

transformer_encoder.layers.0.norm1.bias f4 [64]
00000000: 8521 0f3e 04ff 873e 65b8 3abc ad9c 24bd
00000010: 8aa0 9a3d 778c 3bbe 167a 8a3e ad1a 8d3d
00000020: e3ef d2bd 8be5 363e 3044 80bd a5f0 553d
00000030: 1636 613d a2fb 3ebe 2e9e 96bd 6701 53bc
00000040: 8502 89bc b5eb 253e 21cb 7abd 10fa 78bc
00000050: cf3d d53d fa4a 683d 72c3 2bbe c3d2 353d
00000060: 6ff7 41bd a95d aabd 740d 62be 2133 e33d
00000070: a956 073b 7367 183e cf49 453d 463b fdbd
00000080: 149d 7ebd 4795 babd c32c f8bd 37be b3bd
00000090: 2f17 05be 89e7 923d 8d8e f03d 3e70 5a3c
000000a0: d78a d83d 28aa 453d bc40 563d 9769 003d
000000b0: f995 4b3d 399d 80bd 0d36 20be e8f2 a63c
000000c0: ee88 90bc 0cf1 6b3d 4d3e 343e c35d cd3c
000000d0: 4ae0 1a3c fbb1 00be 2196 003e 0370 ccbc
000000e0: f465 77bd 12fe 85be 5cb5 7fbd 6223 b9bd
000000f0: e3fa 813e 4461 9bbb 3392 c53d f7a4 b0bd
0.1397763 0.2656175 -0.011396502 -0.04018848 0.07550152 -0.18315302 0.2704627 0.068898536
-0.10299661 0.17861001 -0.06263006 0.05223145 0.05498322 -0.18650678 -0.07354389 -0.012878752
-0.016724834 0.16203196 -0.061228875 -0.015196338 0.1041218 0.05671213 -0.16773775 0.04439045
-0.04735511 -0.083186455 -0.22075444 0.110937364 0.0020651019 0.14883213 0.048166092 -0.12364821
-0.06216152 -0.09110504 -0.121179126 -0.08776515 -0.12997125 0.07173068 0.117459394 0.013332425
0.105733566 0.048257977 0.05230783 0.0313507 0.049703572 -0.06279988 -0.15645619 0.020379499
-0.017643418 0.057602927 0.17601891 0.025069123 0.009452889 -0.12567894 0.1255727 -0.024955755
-0.060399964 -0.26170403 -0.062428817 -0.09039952 0.25386724 -0.0047418196 0.09647026 -0.086252145

transformer_encoder.layers.0.norm2.weight f4 [64]
00000000: 791c 703f abd8 2e3f 04f2 963f 2a36 873f
00000010: 9a9b 8a3f 3342 8a3f eef9 713f 3dcc 4c3f
00000020: ad3b 663f 8188 943f ba28 593f e09c 6f3f
00000030: f317 7c3f 8ce8 8f3f b6e6 573f 34fe 873f
00000040: 0e26 843f 80f2 7c3f 372a 4f3f eba1 753f
00000050: cdb4 853f 9b22 743f 303f 5e3f aca2 463f
00000060: a8a5 943f 9280 343f 22e5 373f 9659 8d3f
00000070: 2ba7 6d3f 3aec 803f d9eb 9a3f bc06 753f
00000080: 426b 893f 600f a43f d7aa 953f c9ad 603f
00000090: 3c0b 633f a41b 263f 838a 633f 4fca 873f
000000a0: cfaa 4a3f 8744 393f b297 b63f 6cae 8b3f
000000b0: 12b7 323f 3b11 443f 3b3e 823f 7321 8f3f
000000c0: 509d ae3f b47b 7a3f e416 8d3f c4a8 873f
000000d0: c230 b53f 76cf 6a3f 2ef1 9d3f b63d 883f
000000e0: 443f a73f 9924 2a3f 3bdb 5e3f 6fec 8c3f
000000f0: b4cf 833f 8a46 543f 5203 f73e e5d8 5a3f
0.93793446 0.6829936 1.1792607 1.0563405 1.0828736 1.0801452 0.9452199 0.7999914
0.8993481 1.1604158 0.8482777 0.9359875 0.98474044 1.1242843 0.8433641 1.0624452
1.0324113 0.98807526 0.8092379 0.9595019 1.0445801 0.95365304 0.86815166 0.7759197
1.1613054 0.7050868 0.71834004 1.1042964 0.92833203 1.0072091 1.2103225 0.957134
1.0735857 1.2817192 1.1692761 0.87765175 0.8868902 0.64885926 0.8888323 1.0608615
0.79166883 0.7237019 1.4265044 1.0912604 0.69810593 0.7658879 1.0175241 1.1182083
1.3641758 0.97845006 1.1022611 1.0598378 1.4155505 0.9172281 1.2339227 1.0643833
1.3066182 0.66462094 0.8705327 1.1009654 1.0297761 0.82920134 0.4824472 0.85487205

transformer_encoder.layers.0.norm2.bias f4 [64]
00000000: fa4a c3bc c48f 643e 5670 c23d 081a f53a
00000010: 328a 45ba c54c 1cbc f7e8 ed3d 3cb1 513d
00000020: 2215 1fbe 3876 003e 6e7e d3bd 9bfa 0e3d
00000030: 78b8 6f3d 7fbe 50be 3b4f a53d 2bab 00be
00000040: 8782 033d 0ce6 963e 2991 0dbc eece 033b
00000050: 8522 5a3d c110 bbbc 8ba9 ab3c 4a44 153d
00000060: a226 c7bd 6f41 76be 4aaa 663d b402 2f3e
00000070: 89f7 c0bd c24c b43b ecfa 11bd abc3 0abe
00000080: 02b1 e6bd 5468 9cbd 723d a5bb db40 b1bd
00000090: bc4c afbd 585c 3d3e 16f5 5b3e 6ad1 0fbe
000000a0: 0a3a 963e 629e b73d 39fe a93d e43f c03d
000000b0: f8bb 503d c1fa 4b3d be2b bc3c 8cff da3d
000000c0: 881f 7e3c c1cb 793d 956e 8d3d 2d1c 633d
000000d0: 2d63 a63c 2c3a 63be ebc0 b23d 334c bebd
000000e0: 389d 573b 42d1 36bd 9295 9bbd 0ce4 c7bd
000000f0: 9c83 0f3d 1960 2b3c 6bde 99be 95ac 39bd
-0.023839463 0.22320467 0.09494083 0.0018699775 -0.00075355463 -0.009539788 0.116167 0.051194414
-0.15535405 0.12545097 -0.10326849 0.034906965 0.058525532 -0.20385168 0.08071753 -0.12565295
0.032106902 0.29472387 -0.008640566 0.0020112353 0.053255577 -0.022835137 0.020954868 0.03644208
-0.097241655 -0.24048398 0.056314744 0.17090875 -0.094222136 0.0055023143 -0.03563969 -0.13551204
-0.1126423 -0.076370865 -0.0050427252 -0.08654948 -0.08559558 0.18492258 0.21480212 -0.14044729
0.29341155 0.08965756 0.08300442 0.09387186 0.05096051 0.049799684 0.022970077 0.10693273
0.015510447 0.06098533 0.069058575 0.055446792 0.020310963 -0.2219016 0.087282024 -0.092918776
0.0032900106 -0.044633158 -0.07596888 -0.09760293 0.03503762 0.010459923 -0.30052504 -0.045330603
